model_scripted.pt (torch, 9643 bytes, 5 tensors)

weight f4 [4, 25]
0	0x3dde542a	0.10855897
1	0xbcb5b3eb	-0.022180518
2	0x3d5f469b	0.054510694
3	0x3e4b327e	0.1984348
4	0x3d5920da	0.053009845
5	0x3e0be117	0.13660084
6	0x3d8951e5	0.06705073
7	0x3dc3bfd3	0.09558072
8	0x3e7ad541	0.24495412
9	0xbdae11ae	-0.08499466
10	0x3d4d7ea6	0.05016961
11	0xbd01db1a	-0.031703092
12	0x3c3b799e	0.01144257
13	0x3e0fbacb	0.140361
14	0x3e650e52	0.22368744
15	0x3c3ac1cb	0.011398743
16	0x3e149129	0.14508499
17	0x3d69c333	0.057070922
18	0x3e52e656	0.20595679
19	0x3e118d59	0.14214076
20	0x3e1c1d8f	0.1524565
21	0xbe2757ff	-0.16342162
22	0x3ddf9d35	0.10918657
23	0xbdde369a	-0.10850258
24	0x3df5c3fc	0.12000272
25	0xbd8045dd	-0.06263325
26	0xbdd6499f	-0.10463261
27	0x3db12e89	0.08651454
28	0x3e09183a	0.13388148
29	0xb9b216c9	-0.00033967782
30	0x3c579b37	0.013159565
31	0x3cbbaf8e	0.02291086
32	0x3ccc1186	0.0249107
33	0x3e30cd0b	0.17265718
34	0xbe65bbd7	-0.22434936
35	0xbd6f148c	-0.058369204
36	0xbcbb31fe	-0.022850987
37	0xbcd1cc91	-0.02561024
38	0x3db80937	0.089861326
39	0x3e817b64	0.25289452
40	0xbdd60087	-0.10449319
41	0x3df84b18	0.12123698
42	0xbc75cdfd	-0.015002725
43	0x3d8ac662	0.0677612
44	0x3e05eb3b	0.13078015
45	0x3e05640e	0.13026449
46	0xbe641917	-0.22275196
47	0x3e03eb6c	0.12882775
48	0xbe5b6d9e	-0.21428534
49	0x3cb8ac69	0.02254315
50	0xbddb8308	-0.107183516
51	0xbd058c1d	-0.032604326
52	0xbd6a6490	-0.05722481
53	0xbd9ba866	-0.07600479
54	0xbd4148e1	-0.047188643
55	0xbd80099a	-0.06251831
56	0xbd590392	-0.05298192
57	0xbd467cd8	-0.048458904
58	0xbdf73e11	-0.12072385
59	0xbd43bb52	-0.047786064
60	0xbc4e3783	-0.012586477
61	0xbce253b5	-0.027627805
62	0x3b5561f2	0.00325596
63	0xbdc4f3e3	-0.0961683
64	0xbde9ba8b	-0.114125334
65	0xbbc7b0c4	-0.00609407
66	0xbdcfa429	-0.10138733
67	0xbda7cb2c	-0.08193049
68	0xbda87413	-0.082252644
69	0xbd5eab8d	-0.054362822
70	0xbdddcda0	-0.108302355
71	0x3d766152	0.060151406
72	0xbd21fa3f	-0.039545294
73	0x3ca4b0b9	0.0201038
74	0xbbbf4c4b	-0.0058379523
75	0x3e0d4903	0.13797383
76	0xbde3fda7	-0.11132365
77	0xbe47f75e	-0.19527957
78	0x3e04ad71	0.12956788
79	0xbb2eacec	-0.0026653362
80	0x3dfac8b7	0.122453146
81	0x3cbb9882	0.02289987
82	0xbd264d8c	-0.0406013
83	0x3de7c56c	0.11316952
84	0x3dec74c4	0.11545709
85	0xbcacddd5	-0.021101872
86	0xbe1a95ba	-0.15096179
87	0xbe177fc4	-0.14794832
88	0x3d62f43e	0.05540871
89	0xbc383167	-0.011242247
90	0x3d36cc93	0.04462869
91	0xbaf92b4e	-0.0019010098
92	0xbd75af2c	-0.05998151
93	0x3e6ee37a	0.23328963
94	0xbd8be231	-0.06830252
95	0x3dbb1024	0.09133938
96	0xbd654ba7	-0.05598035
97	0xbd9e383e	-0.07725571
98	0xbe0e3e8f	-0.13891052
99	0xbd64eef3	-0.055891942

bias f4 [4]
0	0xbe2bcf75	-0.16778357
1	0x3e8a1233	0.2696701
2	0x3e60ed0a	0.21965423
3	0x3e3a32d1	0.18183447

weight f4 [2, 4]
0	0xbe0ae10c	-0.13562411
1	0x3de55904	0.11198619
2	0x3e3fa319	0.1871456
3	0x3d947915	0.07249657
4	0xbee7f273	-0.45302162
5	0x3ec051ee	0.37562507
6	0xbea5d595	-0.32389513
7	0xbd3012ff	-0.042986866

bias f4 [2]
0	0x3fff85e5	1.9962736
1	0x3e009aab	0.12559001

weight f4 [1, 2]
0	0xbfda874e	-1.7072542
1	0xbe3f860e	-0.18703482
